scripts/notebooks/prompt_model.pt (torch, 20920 bytes, 4 tensors)

learnable_weights.weight f4 [64, 64]
000000 70 fc ee bc d0 7d 52 bd 7e 6b a6 3d 90 22 ab 3c
       -0.029173106 -0.051389515 0.08125971 0.020890504
000010 48 97 a0 3c f8 38 28 bd 20 a2 07 3c 48 7a 23 3d
       0.019603387 -0.041069955 0.0082784 0.03991154
000020 ca 40 f1 3d de 9c 9f 3d e8 d5 7d bd 9e 18 d9 bd
       0.11779936 0.07793592 -0.061971575 -0.106003985
000030 3e 68 ea 3d 76 8c 81 3d 28 45 43 bd 86 58 c9 bd
       0.11445664 0.06325619 -0.047673374 -0.09831338
000040 00 35 1a 3c 5e ed 9b 3d d0 b6 73 3d e0 5b cc bd
       0.00941205 0.076136336 0.059500515 -0.09978461
000050 10 58 7f bc 2c bd ab 3d 60 be b5 3d e0 09 ab bd
       -0.015584961 0.08385691 0.08874202 -0.08351493
000060 9c 0a 79 3d 82 9f bb 3d 52 bd 8e 3d 6e 1e cc bd
       0.060801134 0.09161283 0.06969704 -0.099667415
000070 72 9a b9 bd f0 9e 82 bc fc 18 47 3d 94 05 b4 3d
       -0.09062661 -0.015944928 0.04860781 0.087901264
000080 6e 3b 9e bd 9c 09 99 bd be a9 db 3d 4c 25 72 3d
       -0.07726179 -0.07472536 0.10725735 0.0591176
000090 25 ac 97 3b 18 74 d1 bc 4e ec a6 3d a8 cf 9a 3d
       0.0046286755 -0.025568053 0.0815054 0.075591385
0000a0 dc 2c b9 3d 94 89 29 bd 20 ca 64 bd 40 35 2b bd
       0.09041759 -0.04139097 -0.055856824 -0.04179883
0000b0 3c e9 4e 3d d6 87 d5 b9 b8 f2 f4 3c 28 25 03 bd
       0.0505154 -0.00040727732 0.029900894 -0.032017857
0000c0 14 4d 98 3d 47 32 21 3b 48 7e 6f bd 68 fb 3e 3d
       0.074365765 0.0024596618 -0.05847004 0.04662648
0000d0 20 55 fe bd d4 99 46 3d 20 2a 49 3d 14 b3 0b bd
       -0.1241858 0.048486546 0.04911244 -0.03410633
0000e0 2a e1 b0 bd 70 3b ab 3d 10 1b 06 bd 6a 58 ac bd
       -0.08636697 0.08360946 -0.032740653 -0.08415301
0000f0 70 40 fb bc 47 e7 46 3b e6 22 fa bd 48 f1 04 bd
       -0.030670375 0.0030350254 -0.122136876 -0.032456666
000100 4b 09 f4 3d 29 0c a3 bd 51 73 c7 bd 69 c2 82 bd
       0.11915835 -0.07961304 -0.09738792 -0.06384737
000110 5f 07 f1 3d 31 9f b3 bd c3 9f ca bd eb 8c 94 bd
       0.11768984 -0.08770598 -0.098937534 -0.072534405
000120 fb 2d dd 3d ef 4a d0 bd 29 fe 93 3d 7f 80 cd 3c
       0.10799786 -0.101705424 0.072262116 0.025085686
000130 1f 14 ea 3c a9 49 cd bc 52 ac 21 bd 67 9a fd 3c
       0.028574048 -0.025059538 -0.039470978 0.030957414
000140 02 01 0d bd 61 0d cc 3d 4b ea 80 bd 13 93 c7 bd
       -0.03442479 0.09963489 -0.06294688 -0.09744849
000150 63 f0 77 3b a7 66 8c 3c c2 a0 94 3a a2 fe 1b 3d
       0.003783249 0.017138792 0.0011339413 0.038084634
000160 ee 48 21 3d e1 a6 f7 bd d5 c1 ef 3d b9 37 cc bc
       0.03937619 -0.120923765 0.117068924 -0.024928914
000170 a7 28 84 3c 9f 6e f9 bd f2 bb 13 3d cd 8b ed bd
       0.016132666 -0.121793024 0.03606791 -0.115989305
000180 2f 61 f8 3c a1 0e a5 3d 19 13 ab bd ea fd 39 3d
       0.030319778 0.08059431 -0.08353252 0.045408167
000190 4f a8 a7 3c 8d d2 a6 bd fd a8 91 bd c7 20 9d bd
       0.020465998 -0.08145628 -0.0711231 -0.076722674
0001a0 3e 46 c0 ba f2 1c 9c bb 3b ae d2 3d f5 5d 8e 3d
       -0.0014669371 -0.0047641927 0.10287138 0.06951515
0001b0 ee 69 09 3d 8b 12 f1 bd d9 e3 9d bc 09 ce a0 bc
       0.033548288 -0.11771115 -0.019273685 -0.019629495
0001c0 dd d2 f7 3d 23 e9 a5 bd 87 94 b3 3c 75 20 ed bd
       0.12100766 -0.08101108 0.02192141 -0.11578456
0001d0 be c1 0d 3d 55 7d ed 3d f9 4d b2 bc c7 35 9a 3c
       0.034608595 0.11596171 -0.021765696 0.018824471
0001e0 a3 00 fc 3d 03 c5 b0 bd 93 ec ae bd 65 df ce 3d
       0.12304809 -0.08631327 -0.08541217 0.10101203
0001f0 a1 26 d6 3d c2 7e c3 3a 6e 5d f5 3b 32 48 d2 bb
       0.10456587 0.0014915096 0.0074879443 -0.0064172978
000200 b2 7f c7 3d fe ec ea 3d 0c 63 77 3d b7 c5 80 3c
       0.09741153 0.11470984 0.060397193 0.015719278
000210 1d 9c 32 bc 6a 4f bc 3d 1a f8 97 3d 28 40 52 bd
       -0.010901478 0.091948345 0.074203685 -0.051330715
000220 60 6a ce bb 4c 8c 66 bd c2 0c fe bd 16 e1 e1 3d
       -0.006299302 -0.05628614 -0.12404777 0.1102926
000230 80 48 e9 3b d4 1e b9 3d 24 01 ec 3d a2 f1 a2 3d
       0.0071192384 0.09039083 0.11523655 0.07956244
000240 da 7a fc bd be 8b 79 bb 20 e6 91 3b 04 b5 cc bd
       -0.123281196 -0.0038077678 0.004452482 -0.099954635
000250 38 e0 62 3d 44 c5 60 bd d0 2b 96 3d ee e5 f4 3d
       0.055389613 -0.054875627 0.07332575 0.11957918
000260 76 bd cc bd f4 b9 b7 3d fe 2a 34 bb 8a 0c af 3d
       -0.09997074 0.089710146 -0.0027491446 0.085473135
000270 9d 0c 10 bc af 59 ab 3c 3c c9 cd bd 76 08 85 bd
       -0.00879207 0.020916788 -0.10048148 -0.064957544
000280 c0 3a 5a bd 53 1a 04 3c 9c d9 dc 3d 10 1a 37 bd
       -0.053278685 0.008062917 0.10783693 -0.04470259
000290 02 ef ff bd 7a c6 ea bd e4 50 68 3d 44 2c 58 bd
       -0.12496759 -0.11463638 0.05671777 -0.05277659
0002a0 c0 2a 85 bd 60 1c 2f bd c4 fb 4e bd a0 a1 f0 bb
       -0.065022945 -0.04275167 -0.05053307 -0.007343486
0002b0 26 91 92 bd ac e6 2e bd 2e c2 9a 3d 62 0e b8 bd
       -0.07156591 -0.042700455 0.07556568 -0.08987118
0002c0 37 65 fe 3c c0 88 90 3d ac d3 09 bd d0 14 83 bd
       0.031054122 0.07057333 -0.03364913 -0.06400454
0002d0 89 85 92 bc 4a fb 88 bd 48 02 c2 bd c6 be df 3d
       -0.01788594 -0.066885546 -0.09473091 0.10925059
0002e0 4c 98 27 bd 8c 3a 48 3d 27 b2 95 3c b8 ad 84 bd
       -0.040916726 0.04888396 0.018273426 -0.06478447
0002f0 7f 10 c4 3c 44 44 0c 3d bd 47 0f bc 58 7d 44 bd
       0.023933647 0.03424479 -0.008745131 -0.0479711
000300 90 59 8e bd 85 78 48 3c 76 88 e6 3d b2 08 8e bd
       -0.069506764 0.012235765 0.112564966 -0.06935252
000310 60 55 85 3d 84 fc 29 bd e4 38 ef 3d ca a7 9f bd
       0.065104246 -0.041500583 0.11680773 -0.07795675
000320 ed d9 d7 3c 8c eb e7 bd e4 91 f0 3d 34 d8 35 3d
       0.026349032 -0.11324224 0.117465764 0.04439564
000330 56 d2 93 bd fa 4b 83 bd 83 93 81 bc 53 6f be bb
       -0.07217853 -0.06410976 -0.01581741 -0.0058116107
000340 f0 6a 97 bd 22 1b 90 bd d8 8c cb 3d 38 91 7c bd
       -0.073934436 -0.07036425 0.09938973 -0.06166193
000350 24 bf 56 bb 74 9b 22 bd 83 04 d7 bc 1c 08 17 3b
       -0.0032767737 -0.039699033 -0.026247269 0.0023045605
000360 dc b2 3b bd b4 2b ad 3d 94 16 d2 bd b3 08 ea bb
       -0.04582487 0.08455601 -0.10258213 -0.0071421503
000370 48 82 41 bd f8 4f da 3d cb ee 17 bc ea f6 ee 3d
       -0.047243387 0.10659784 -0.009273241 0.11668189
000380 d4 d3 71 bd f4 05 89 3d c5 10 b1 3c 08 23 78 bd
       -0.059039906 0.066905886 0.021614442 -0.060580283
000390 9a 94 e2 3d ec 63 bf bd 5c 7f 32 3d 25 0e 47 3c
       0.110635 -0.093452305 0.04357849 0.012149368
0003a0 d0 e1 77 3d 45 e0 09 3c 00 5b a4 bd fb 96 c2 bc
       0.060518086 0.008415286 -0.080251694 -0.023753634
0003b0 a4 21 ff 3d c4 d7 17 3d e2 92 e0 39 84 18 62 bd
       0.12457588 0.037071005 0.00042834046 -0.05519916
0003c0 c8 1e c6 bd 38 c9 24 3d c4 8b 7d bd e4 57 71 bd
       -0.0967384 0.04023096 -0.06190087 -0.05892171
0003d0 a0 7b 89 3d 4e b8 af bd 84 85 60 3d 93 73 b2 bc
       0.06713033 -0.08580075 0.05481483 -0.021783626
0003e0 76 8f e4 3d cb 37 cd bc 92 72 fe 3d c3 dd ee bc
       0.111601755 -0.025051018 0.12424196 -0.029158479
0003f0 a6 aa 9f 3d 8a ff 9f bd d3 67 f5 bc de 66 ac bd
       0.077962205 -0.07812412 -0.029956734 -0.08418058

learnable_weights.bias f4 [64]
000000 d0 6f 44 bc a0 39 89 3b 10 18 41 bd fc ad 43 bd
       -0.011989549 0.0041877776 -0.04714209 -0.047773346
000010 80 c7 f0 ba c0 4a d3 bc 98 d0 9d 3d 9c 69 2b 3d
       -0.0018370003 -0.02579248 0.07705802 0.041848764
000020 54 82 04 3d 80 35 99 3b de 0a a9 bd e8 b9 63 3d
       0.032350853 0.004675567 -0.08254026 0.055597216
000030 54 4d 28 bd 58 7d 48 3d 44 38 7c 3d 5e 00 b6 3d
       -0.04108937 0.048947662 0.061577097 0.08886789
000040 e0 59 fd bd 5c 83 17 bd 16 db e8 3d 2c 9a 56 bd
       -0.12370658 -0.03699051 0.11369912 -0.052393124
000050 58 c6 ab bd 16 f1 9e 3d 40 b6 ca 3c 34 bc 80 bd
       -0.083874404 0.07760827 0.024745107 -0.06285897
000060 82 3b fc bd 9c 56 74 3d 22 45 81 3d d6 42 e7 bd
       -0.12316038 0.05965291 0.06312014 -0.11292045
000070 d8 20 96 3c 9c 4d 7a bd c0 9e 08 bb 18 34 02 3d
       0.018326208 -0.06110917 -0.0020846575 0.03178796
000080 fa f6 af 3d 50 7f a5 bd 7a 90 cc 3d ce 23 ed 3d
       0.08592029 -0.080809236 0.09988494 0.11579095
000090 80 4e ad bb 7a 5f 83 3d 5a 4d b9 3d ba 3e 90 bd
       -0.005288899 0.06414695 0.09047957 -0.07043214
0000a0 78 36 1b bd a8 f2 84 bd e0 d0 0c 3c 3e 6f 8e 3d
       -0.037893742 -0.064915955 0.008594722 0.069548115
0000b0 1c d3 90 3d 90 16 ad bc b0 cd 84 3d ac 86 4a 3d
       0.07071516 -0.021128923 0.06484544 0.04944484
0000c0 22 dc c2 bd 62 7f 9a 3d a8 3c 94 bc 5c c9 3b bd
       -0.09514643 0.075438276 -0.01809533 -0.04584633
0000d0 4a 5f 9f bd 00 0f fe 3a 8c 97 fa bd da 6a 9b bd
       -0.07781847 0.0019383132 -0.122359365 -0.0758874
0000e0 04 e8 2b 3d 00 2b e6 ba 48 da 66 bd 88 10 94 3d
       0.041969314 -0.0017560422 -0.056360513 0.072297156
0000f0 74 c3 e7 bd 96 a5 ea bd 94 03 cd bd 4e 91 cc 3d
       -0.113165766 -0.11457364 -0.10010448 0.09988652

learnable_embeddings.weight f4 [256, 1]
000000 b1 60 82 3d 79 d9 3e bf 83 e8 91 3e 2e ce 12 3d
       0.06366099 -0.74550587 0.28497705 0.03584116
000010 2f d5 bb 3e 78 c2 dc 3d 50 eb fd 3e 18 79 e4 be
       0.36686084 0.107792795 0.49593592 -0.44623637
000020 f1 aa 0a 3f 47 c2 01 be f1 97 1f 3f 17 4b 2b bf
       0.54167086 -0.12671767 0.6234122 -0.66911453
000030 b5 f0 6e 3f f4 2c cd 3d 9e f3 50 3f 8d d7 2a 3c
       0.9333604 0.1001834 0.8162173 0.010427368
000040 32 28 94 3b 81 d1 0e 3d 3e 62 82 be 8d bd 71 bf
       0.004521393 0.034867767 -0.25465578 -0.94429857
000050 89 21 ff 3e bb 65 05 3f 76 73 4e 3f 1f e9 6c 3f
       0.49830273 0.52108353 0.8064493 0.92543215
000060 c5 80 4a 3d b9 d3 db be 65 5d 44 3f e7 2f 1a bf
       0.04943921 -0.4293497 0.7670501 -0.60229343
000070 ba bf c4 3e eb d6 68 3f dd 92 51 be a2 a2 fd bb
       0.38427526 0.9095294 -0.2046618 -0.0077403346
000080 f3 3c 75 3f d5 6a 4f 3f ed d6 66 3f 61 3a 8d be
       0.95796126 0.8102239 0.901717 -0.27583602
000090 ff c8 e6 3e d5 a5 4f bf 3b 64 23 bf c0 35 e7 3e
       0.45075223 -0.81112415 -0.63824815 0.45158195
0000a0 78 3c 43 3f d8 ec 23 3f 2d fb 3b 3f d0 89 25 be
       0.76264143 0.6403327 0.7343014 -0.16165853
0000b0 73 17 a9 be 0b bf 4c bf 64 83 12 3f 40 e7 5c 3f
       -0.33025703 -0.7997901 0.57231736 0.8629036
0000c0 3d 47 52 3f ed 22 fe bd 6c a8 d9 3e 7d e8 10 be
       0.8213995 -0.12409005 0.42511308 -0.14151187
0000d0 e2 82 64 3f 87 ee 3d bf 57 ab b2 3d e0 3c 5e bf
       0.8926221 -0.7419209 0.08724087 -0.8681164
0000e0 2e da 34 bf c8 ba 64 3f f3 5e 44 bf a9 77 39 3f
       -0.70645416 0.89347506 -0.7670738 0.7244821
0000f0 0b d6 c9 3e 70 0d 82 3e 28 ed 50 bf 57 36 39 bf
       0.39421114 0.25400877 -0.8161187 -0.7234854
000100 fc c9 d4 3e 43 08 7e bf 7a 10 93 3e 99 03 c8 bd
       0.41560352 -0.99231356 0.28723508 -0.09766311
000110 3f 69 e7 bd 15 e3 00 bf bd 13 de 3e d5 2c ef be
       -0.11299371 -0.503465 0.43374434 -0.46713892
000120 9f 64 3c 3f e0 36 72 3f 79 51 27 3f cf 77 71 bf
       0.73591036 0.9461498 0.6535869 -0.9432344
000130 09 44 f8 3e 17 ef 05 be 06 ce e7 bc 94 5a 55 3f
       0.48489407 -0.13079487 -0.028296482 0.83341336
000140 b9 56 d9 3d 75 5e 15 bf 91 2d 31 3f 57 48 76 bf
       0.10612244 -0.58347255 0.69210154 -0.9620413
000150 74 be 6b 3f 7e 54 24 bf 50 29 14 bf be 36 6b bc
       0.92087483 -0.64191425 -0.5787554 -0.014356313
000160 93 51 9b 3e 82 11 f0 3c f3 7d c1 3e 1f 72 87 be
       0.30335674 0.029305223 0.37791404 -0.26454255
000170 81 0a ef 3e 12 86 f2 3e ae 82 e8 be 61 0e 20 3f
       0.466877 0.47367913 -0.454122 0.6252194
000180 c8 b4 a0 3e 9b ef 2b 3f 70 d2 4e 3f fe 38 59 3f
       0.31387925 0.67162484 0.8078985 0.8485259
000190 52 92 72 bf 42 79 97 3e 2e 77 62 bf 51 0b 71 bf
       -0.9475452 0.295847 -0.88463104 -0.9415789
0001a0 12 50 a0 3d 9d 78 ef 3e d2 37 8e bd cc 84 6d 3f
       0.07827772 0.46771708 -0.06944241 0.92780757
0001b0 6e 11 3e bf 84 fa 69 3f ff bc dc 3e cd b0 31 3e
       -0.74245346 0.9139788 0.43112943 0.173526
0001c0 d3 c3 c5 3e 06 20 78 3f 3f 80 b7 be 63 77 71 bc
       0.38625965 0.96923864 -0.35840032 -0.014737937
0001d0 ff f4 97 3e fa 5a 89 be d2 40 c1 be 7d fd 41 bf
       0.29679105 -0.26827222 -0.37744766 -0.7577742
0001e0 e5 11 4e bf 8a 46 46 3f b1 6d 5c bf 94 60 42 3f
       -0.80496055 0.77451384 -0.86104876 0.75928617
0001f0 ec 06 80 bc 79 05 47 3f 37 a2 df be d5 06 d0 3e
       -0.0156283 0.77742726 -0.43678448 0.40630212
000200 a3 73 51 3f 28 9d 40 bf 7a de 47 3f b2 60 d6 bd
       0.8181707 -0.752398 0.7807385 -0.10467662
000210 ff 4b b6 be 2c b2 30 bf 10 fa 0e bf fa 17 6c 3f
       -0.35604855 -0.6902187 -0.55850315 0.92224085
000220 55 2e 2b bf 03 df e0 bd fc 19 84 3e 52 00 c3 3d
       -0.6686757 -0.10980036 0.25801075 0.095215455
000230 56 71 06 3f 63 77 a1 3e 99 f9 11 bf 55 45 b9 3e
       0.52516687 0.31536397 -0.5702148 0.3618571
000240 04 1c 65 bf 9e 03 ab 3e ad 84 4c bf 6f 09 98 3e
       -0.89495873 0.33401197 -0.7988995 0.29694697
000250 d7 38 45 3e 0c e1 90 3e b8 3d 90 be dd 9c 36 3f
       0.19259964 0.28296697 -0.28172088 0.71333104
000260 4a 26 04 be 3e cd 55 3d 63 80 fd 3e 5e fe 32 3f
       -0.12905231 0.052197687 0.49512014 0.69919384
000270 e3 df 61 3e 3b c8 85 bd 19 5c b2 be 0e 3e 0e 3e
       0.22058062 -0.065323316 -0.3483589 0.1389086
000280 aa 95 0d 3f 96 1e 0d 3f 64 56 61 3f a6 b8 40 3f
       0.55306494 0.55124795 0.88022447 0.7528175
000290 e3 0d 65 bf 4b c5 e2 be 54 9d 21 3f d7 7f e0 be
       -0.89474314 -0.44291148 0.6313069 -0.43847534
0002a0 79 7f fb be ad 50 17 bf 12 18 7a bf ca 70 4b 3f
       -0.4912069 -0.59107476 -0.9769298 0.7946898
0002b0 43 92 18 be 9e 5f 49 bf 6e 2c 5e 3f 07 82 7b 3f
       -0.14899544 -0.78661525 0.86786544 0.9824528
0002c0 c7 8c bb be 94 fb 8c bd 80 6b 70 bf 96 ba 69 3f
       -0.36630842 -0.06883922 -0.9391403 0.9130033
0002d0 37 a3 21 3f c9 0b 03 bf 84 6c 64 3f b1 3a dc be
       0.6313967 -0.5118986 0.8922808 -0.43013528
0002e0 42 36 a5 be a5 3a 76 3f 6e bb 7f be fa cc 73 3f
       -0.32267958 0.96183234 -0.24973843 0.95234644
0002f0 b7 48 82 be fe 5c b7 3e 35 df c4 3e fb e8 11 bf
       -0.25446102 0.35813135 0.38451543 -0.56996125
000300 ac 1e 25 3f 19 c0 7e bd f7 d7 b3 3e cf 21 ef bd
       0.64499927 -0.062194917 0.35125706 -0.1167637
000310 92 a7 80 3e c7 47 73 be 32 9c ae be 46 28 4e bf
       0.25127846 -0.2375785 -0.34103543 -0.805302
000320 83 47 4c 3e b1 72 5a bf 69 23 e1 3d fb 6c 7e 3f
       0.19949155 -0.85331255 0.10993082 0.9938504
000330 c9 6e 6c 3f e8 57 98 be 86 3a f9 be d9 b8 76 3f
       0.92356545 -0.29754567 -0.48677462 0.96375805
000340 c8 c7 26 bf 51 b4 87 bd 4c a5 5b bd 8b 3b 43 bf
       -0.6514859 -0.066261895 -0.053624436 -0.7626273
000350 63 f4 1d 3f 14 07 f3 be 0b ca e9 bd 9c a3 51 bf
       0.6170103 -0.47466338 -0.1141549 -0.81890273
000360 f7 d8 ca be 58 27 04 3f 1f e9 f2 bd 22 fe 4a be
       -0.39618656 0.51622534 -0.118608706 -0.19823506
000370 37 e3 70 3f a6 e7 41 bf 1f 93 09 bf 27 1a 7d 3e
       0.940967 -0.7574409 -0.53740114 0.24717008
000380 8b c5 0d 3f 54 b8 6b 3f 1d 52 17 3c 5a b7 5d be
       0.5537955 0.9207814 0.009235886 -0.21651974
000390 57 d5 b3 3d 37 10 d3 be 0d 49 a1 be 39 3a cb be
       0.08780926 -0.41223308 -0.31501046 -0.39692858
0003a0 16 ac fc be f9 50 21 3f ac c7 8e 3e e8 a3 f6 be
       -0.4935004 0.6301418 0.27886713 -0.48171926
0003b0 1d ec 06 bf 88 2a 0d 3f 9b eb 5e bf 19 0b e0 3d
       -0.5270403 0.5514302 -0.87078255 0.10939617
0003c0 53 74 ea 3e 78 c4 13 3f c4 3e 13 bf e9 d2 32 be
       0.45791873 0.5772166 -0.5751765 -0.17463268
0003d0 06 d4 86 be 30 19 74 be 5d 14 5b 3f b1 eb 00 bf
       -0.26333636 -0.23837733 0.85577947 -0.50359637
0003e0 70 85 4c bf c8 bb 7e 3e e4 15 57 bf cf 5e ba be
       -0.7989111 0.2487632 -0.8401778 -0.36400458
0003f0 10 3d 54 3f 87 35 b9 3e 22 7e 1d 3f 67 9d 61 bf
       0.82905674 0.3617365 0.6152059 -0.881308

learnable_embeddings.bias f4 [256]
000000 40 90 f3 3e f8 c0 22 3f 00 61 4d 3e e4 bb 88 3e
       0.47570992 0.63575697 0.20056534 0.2670585
000010 18 66 88 3e e4 1f bd 3e b0 7a 57 3f f4 db c8 3e
       0.2664039 0.36938393 0.8417158 0.3923031
000020 d0 7b 78 3e 28 84 80 be dc a2 74 3f 3c a3 2c bf
       0.2426598 -0.25100827 0.95561004 -0.67436576
000030 c4 56 09 bf 04 25 69 bf 08 4e bb be 48 59 ac 3e
       -0.5364802 -0.91072106 -0.3658297 0.33661866
000040 60 2c 37 3f 90 3b 2b bf b4 c0 5e 3f 16 2c 13 3f
       0.71552086 -0.6688776 0.8701279 0.57489145
000050 c2 14 54 3f 10 80 f2 3e 7c 41 e6 be cc ca 1f bf
       0.82844174 0.4736333 -0.44971836 -0.6241882
000060 40 3e cf 3e 28 6e d8 3e d0 a6 07 3e f8 14 d9 be
       0.4047718 0.42271543 0.13247228 -0.4239881
000070 88 c8 2a 3e d4 a3 41 3f 3c c5 21 3f c0 8b 92 bc
       0.16678059 0.75640607 0.6319158 -0.017888904
000080 90 5b 18 be f4 80 63 3f fe fa 5f bf 08 19 0d 3e
       -0.14878678 0.8886864 -0.8749236 0.1377908
000090 a0 9d d7 be b4 e4 83 be 48 b9 3b 3f 30 5b 89 be
       -0.42112446 -0.25760424 0.7332959 -0.26827383
0000a0 b0 11 48 3f ac 39 2c bf c4 37 f5 be c8 9b b0 be
       0.7815199 -0.672755 -0.47894108 -0.34493852
0000b0 c8 c9 a4 be 10 fa 2b 3e 6c 7b f1 be 60 e5 e0 bd
       -0.32185197 0.1679461 -0.47164476 -0.1098125
0000c0 90 f6 63 be e8 61 fa 3e 00 25 43 bc f0 3e 7f be
       -0.22262025 0.48902822 -0.011910677 -0.24926353
0000d0 6c 7c 93 be c0 c7 13 3e f0 c3 b1 3d ba 33 22 3f
       -0.28805864 0.14431667 0.0867995 0.6336018
0000e0 c0 d6 fe 3e e2 a5 52 bf 00 ec 19 3d 96 90 02 3f
       0.49773216 -0.8228437 0.037578583 0.5100187
0000f0 3c 75 e5 3e 24 ea 65 3f d6 b1 44 bf 4c 77 5b bf
       0.44816005 0.89810395 -0.76833856 -0.8572891
000100 d4 00 0a bf 82 ce 1c 3f f4 19 28 bf 20 0b 38 bf
       -0.53907514 0.61252606 -0.656646 -0.71891975
000110 d0 93 ff bd 3a 23 58 3f be 0b 46 3f d8 0a 12 be
       -0.12479365 0.8442875 0.7736167 -0.14261949
000120 90 fe e7 3d d4 69 da be 10 49 58 bf 60 c2 28 3d
       0.11327851 -0.42658865 -0.84486485 0.041200995
000130 7c b4 63 bf 70 ba 3f be d8 82 46 3e 0e 44 48 3f
       -0.8894727 -0.18723464 0.1938585 0.78228843
000140 a0 0c 39 bd a4 ca ae be ee ee 3c 3f d0 0f 02 3f
       -0.045178056 -0.34138978 0.7380208 0.5080538
000150 08 6f 7a bf f8 50 6a be a0 21 52 3e b0 ac 80 3e
       -0.9782567 -0.2288245 0.2052064 0.2513175
000160 60 d0 5c 3f 7c 93 85 3e d0 4b e5 be 94 fa 36 3f
       0.86255455 0.26089084 -0.44784403 0.714761
000170 d4 3f ed 3e a0 d6 c7 bd cc 37 cc 3e 50 3b 1c bf
       0.4633776 -0.09757733 0.3988632 -0.61028004
000180 04 c6 87 3e 08 6a 00 bf f8 4e 1e 3e a4 8c 2e bf
       0.2651826 -0.5016179 0.15459812 -0.6818335
000190 f0 32 2e 3e 58 f6 14 be a0 41 3a 3e 88 0a 7b be
       0.17011619 -0.14547098 0.18189096 -0.24515736
0001a0 00 a2 77 3d d0 ac e2 bd 3a 7c 58 3f 90 de 0c bf
       0.06045723 -0.110681176 0.84564555 -0.55027103
0001b0 a6 a5 4f 3f f0 c0 55 be cc 75 aa be 22 33 18 3f
       0.81112134 -0.20874381 -0.33292997 0.5945302
0001c0 14 51 73 bf 48 26 50 bf f8 3f 1a be f0 48 6e bf
       -0.9504559 -0.8130841 -0.15063465 -0.93080044
0001d0 1e c0 33 bf 08 b8 0a 3f 40 31 86 3e 10 9a 7e be
       -0.7021502 0.5418706 0.2620945 -0.24863458
0001e0 ac c0 4f bf 5e cd 49 bf 04 01 5e 3f b8 ca 07 bf
       -0.8115337 -0.7882899 0.867203 -0.530437
0001f0 d6 7e 69 bf 4c b5 1c bf 6a 4c 7a bf 7c 69 82 be
       -0.9120916 -0.6121414 -0.9777285 -0.25471103
000200 7c 68 0f 3f 00 ec fd bc d2 49 49 3f 84 f6 06 bf
       0.56018806 -0.030996323 0.78628266 -0.52719903
000210 96 94 2d 3f e0 f4 09 3f dc e0 1c bf 28 5b 39 bf
       0.6780485 0.53889275 -0.6128061 -0.7240472
000220 58 a5 40 3f 48 78 ea 3e 30 49 31 3e 7c 70 4b bf
       0.75252295 0.45794892 0.17313075 -0.7946851
000230 a4 46 46 3f 82 83 2b 3f 94 26 e3 3e 68 e1 68 bf
       0.7745154 0.6699754 0.4436537 -0.9096894
000240 62 8e 6b 3f f0 01 86 3e e2 7f 08 3f 68 4a 09 3f
       0.92014134 0.26173353 0.53320134 0.5362916
000250 00 c5 c8 bc bc b4 f6 be 0e e7 62 bf 20 4a 69 bf
       -0.024508 -0.48184764 -0.8863381 -0.9112873
000260 48 dc 48 be 20 e5 e7 3d 78 fa a9 be 30 54 df 3e
       -0.1961528 0.11322999 -0.33198905 0.43618917
000270 58 1d e5 be f8 44 7e 3f 80 3f 05 bd 40 0a 17 be
       -0.4474895 0.9932399 -0.03253126 -0.14750004
000280 08 fa b1 be e0 a6 26 be 00 94 af bb 80 2e 7a bd
       -0.3476107 -0.16274595 -0.005358219 -0.061079502
000290 9e 5b 43 bf d8 37 0f bf a8 90 bd 3e 42 78 42 3f
       -0.7631167 -0.55944586 0.37024426 0.7596475
0002a0 b0 18 5b bf 0c 6a cd be 0e 9c 3a 3f 48 e4 08 bf
       -0.85584545 -0.4011997 0.7289437 -0.5347333
0002b0 0a 23 6e bf fa 8e 53 bf 34 b1 82 3e f0 09 55 3f
       -0.93022215 -0.8264004 0.2552582 0.8321829
0002c0 da 03 0c 3f 00 ac b9 bc 48 af 16 be a0 e7 42 3d
       0.54693377 -0.022665024 -0.14715302 0.047584176
0002d0 4c db a9 3e 48 f0 4f bf 3c 58 50 bf 28 7b ab be
       0.33175123 -0.81226015 -0.81384635 -0.33492398
0002e0 a0 11 0d 3d f8 12 7b 3e d6 1f 6a bf c4 61 53 bf
       0.034440637 0.24518955 -0.9145483 -0.82571054
0002f0 b0 32 01 bf 22 4f 19 3f 00 f6 70 be ee 96 72 bf
       -0.5046797 0.5988637 -0.23531342 -0.9476155
000300 8e 32 7c bf 2a e1 67 3f e6 c6 78 bf 2c d6 ec 3e
       -0.9851464 0.9057795 -0.97178495 0.4625715
000310 02 2f 77 3f b4 b7 17 bf 80 aa d1 3c 68 11 aa be
       0.96556103 -0.59264684 0.025593996 -0.33216405
000320 40 d8 68 bf 18 61 fc 3e ca 54 49 bf 3a bc 56 3f
       -0.9095497 0.49292827 -0.78645 0.8388096
000330 5c 37 f1 3e 60 37 48 3e ae 72 07 bf 80 1a 8d 3c
       0.47112548 0.19552374 -0.5290936 0.01722455
000340 d0 be a1 3e cc da 6e bf d8 3d 86 be 5e 9d 0d 3f
       0.3159089 -0.9330261 -0.26219058 0.5531825
000350 96 ba 3b bf 6c f7 de be 16 bb 5a bf 70 84 6b bf
       -0.7333158 -0.43548143 -0.8544172 -0.9199896
000360 7c 55 1a 3f 0a 0c 1d bf 1e e4 7a 3f 46 45 14 3f
       0.6028669 -0.61346495 0.9800433 0.579182
000370 ac 41 c6 3e f8 cd 6a 3e 00 70 72 bd 80 a0 16 3f
       0.3872198 0.22930133 -0.059188843 0.58838654
000380 50 16 04 3e 20 04 c9 bd 1a 98 5f bf c0 35 ec bc
       0.12899137 -0.0981524 -0.87341464 -0.028834224
000390 00 42 95 3e 84 7d 7d 3f 98 6a a4 be 84 c1 37 3f
       0.29151917 0.99019647 -0.32112575 0.71779656
0003a0 58 af 18 bf 02 2f 37 bf be fb 6f 3f 18 f4 02 be
       -0.59642553 -0.71556103 0.93743503 -0.12788427
0003b0 e0 fc 42 be 8e 0a 77 3f 6c 96 11 bf 04 74 e9 3e
       -0.19041777 0.9650048 -0.5687015 0.45596325
0003c0 c0 b3 b5 be 00 28 ae 3a bc e9 de be ec 28 63 bf
       -0.354887 0.0013287067 -0.435377 -0.88734317
0003d0 12 2e 5b bf d2 75 5e bf ac cd 30 3f 86 07 66 3f
       -0.8561717 -0.8689853 0.6906383 0.8985523
0003e0 40 49 f2 bd fc e7 6a bf 02 61 63 bf aa 43 57 bf
       -0.118303776 -0.9176023 -0.888199 -0.8408762
0003f0 1c c6 96 3e 40 41 11 bf ae 91 64 3f c0 f2 50 3e
       0.2944802 -0.5674019 0.8928479 0.20405102
